李宏毅机器学习-作业/week3/weight.npy (npy, 1432 bytes, 1 tensors)

array f8 [163, 1]
21.374026893135508 0.20722605718426862 -0.6415691993971164 1.0545733059073696 -1.3693996708649896 -0.7746824997014259 1.7962717748174986 -0.7318623938482984
-1.6852966104003793 2.051260350682338 -0.32993666042041986 0.13806435632972386 0.07061798767434148 0.10641255125152638 -0.03728210131866838 -0.02037623930300439
-0.17862827453659372 0.16237711815294154 0.5225195791373415 0.04912913431981007 -0.024258318889030073 0.0662555211221949 -0.15878337187045985 0.1509817253072327
-0.017301361783433094 -0.1623569870128061 0.07622706362243814 0.4038790256567262 -0.31120925183611176 0.3727542761067487 -0.28546134793549066 0.32449706420583535
0.2915039618582245 -0.519147477565609 0.09366163595020131 0.18913619223201333 0.08352114061474877 -0.0364234357241846 -0.13977609687347506 0.2179599315623966
-0.3430449230491543 -0.04357202389469165 -0.3207742914682913 -0.011794978913886811 0.1497509118857598 -0.5622312598920319 -0.04469346886726508 -0.7730992038340148
-0.29776539440142463 -0.921897722560362 -0.25192248718595656 -0.4207337713898525 -0.42836974490467183 -0.8880696310301938 0.5160663354398806 0.3937644602173836
0.29568430896748427 0.24391547575234762 0.9225091670766085 0.19733459187075852 0.5502774985711201 0.1613209590065572 0.3499474147771069 1.4867111299509725
-0.01810376555266379 0.31603255057008933 -0.2714288946101005 -0.2536319146571963 -0.08190414622058878 -0.5291279740634456 -0.43528440649010813 -0.23782482142273711
1.833557665587186 0.2342086300858896 0.21871383685033216 -0.7977463962969943 1.1518601625023661 -0.25902846889625925 -1.0058997116063078 1.0457386104280564
-0.10325136900982042 0.940384963585335 -0.6097537552451654 -0.18948261425277174 3.5793458848746837 -3.9622645687589078 -0.3184541489159432 8.168410346017923
-9.26229304993956 0.420678649015531 15.830181885333173 0.07909953464132381 -0.024319803158561217 -0.09167491333635684 0.021387779724156793 -0.11491717707312823
0.1050889251195285 0.0372542494961478 -0.08422562631723628 -0.1581185845981692 -0.2121649517468717 0.43405527722285514 0.08132554959926475 -0.30896332650552477
-1.394482473877089 1.8973353839945655 -1.6959599139176784 0.16794618008260606 0.6430915586322581 -0.5143252107826506 0.6099187432165349 -0.13601336536250552
-0.09063830552349365 -0.02414548370698654 0.10430068544855198 -0.21321763300206015 0.2620613918371749 0.2648622115180188 0.34706359191792 -0.294742563387454
0.16797519303780045 -0.45396017732842864 -0.04196181337670355 0.34811297550415027 0.06628523358836186 -0.3582665961781077 -0.16222359738651107 -0.04343369590411508
0.2827197563409121 -0.035368375170120044 0.16976681308628883 0.04153088952064632 0.17000082473992612 -0.25191094976186856 0.11065874077724266 0.03139553676491684
-0.19348811436855448 -0.09834481554087196 0.08506572579350748 -0.17601923230565575 0.04418321554349406 0.00452243975519201 0.0018597636526069745 -0.22333834285461263
0.045700282909383376 -0.187210586973169 -0.13913644619075893 0.2551805783408594 0.09174323327789814 -0.101733386769867 -0.0797890789709714 -0.04758709529547671
-0.003672603127447571 -0.14154835300470275 -0.022656372981604694 0.19641411007656032 -0.15471512015146457 -0.23427321531702275 -0.05996179379999166 0.3548086073501201
0.005516044928784826 -0.3430894719918076 0.2174653927316278
00000000: 6cd7 f939 c05f 3540 8a23 3e29 6286 ca3f
00000010: 3202 3121 bc87 e4bf 46b5 4142 88df f03f
00000020: ef4a 18a1 0fe9 f5bf 7409 20f4 32ca e8bf
00000030: c21a f978 87bd fc3f d805 d8ae 6a6b e7bf
00000040: 24ab 1b94 f9f6 fabf d918 ce2f fb68 0040
00000050: 5375 90a7 ae1d d5bf 5ef8 96c3 17ac c13f
00000060: a914 923b 0514 b23f e05c 825b da3d bb3f
00000070: 0099 c7bb a316 a3bf a8ff af45 82dd 94bf
00000080: 3146 a392 4add c6bf 54f5 0afe c5c8 c43f
00000090: 1f44 fdfa 7ab8 e03f 7666 5e32 7427 a93f
000000a0: a025 2339 2cd7 98bf 3036 6630 1ff6 b03f
000000b0: 8f86 aa76 0353 c4bf fe7d 3e82 5e53 c33f
000000c0: dbf9 24bc 72b7 91bf f0a0 bf1e 1dc8 c4bf
000000d0: 7817 54e9 9d83 b33f 5c1a af69 27d9 d93f
000000e0: 8f51 b635 daea d3bf 22a6 54c0 34db d73f
000000f0: adeb 69ac ff44 d2bf 705f 9a55 8fc4 d43f
00000100: ed78 b53b 00a8 d23f f33e be2b db9c e0bf
00000110: dbc4 4b7f 35fa b73f 0e30 1060 9d35 c83f
00000120: d607 7737 a461 b53f df95 7cb2 17a6 a2bf
00000130: e5c3 6ae2 2ee4 c1bf e10e f36c 1ce6 cb3f
00000140: 5f84 63b1 72f4 d5bf f5e4 4b83 124f a6bf
00000150: 9e3f d0e4 9087 d4bf c087 8945 f727 88bf
00000160: df39 8cb2 092b c33f 0fce 4069 ccfd e1bf
00000170: bc67 42f6 0fe2 a6bf c0fb a08a 3abd e8bf
00000180: 136b b595 960e d3bf 96ea 14a7 2f80 edbf
00000190: 6acd e57e 7f1f d0bf 4d4c 1c57 4ded dabf
000001a0: 0a88 3def 686a dbbf 150e bb00 116b ecbf
000001b0: bffc 288c 9d83 e03f 057d bdd9 6f33 d93f
000001c0: 432a 3de1 7dec d23f 501c ac4f 9f38 cf3f
000001d0: e155 dbf1 3185 ed3f 482a 3a89 4242 c93f
000001e0: 02ce 828e df9b e13f b1d7 8b49 2aa6 c43f
000001f0: 1c65 72d7 8965 d63f 71d1 1b9c 91c9 f73f
00000200: debc ee23 cb89 92bf 47e1 4a97 e039 d43f
00000210: 498c 624c 175f d1bf 5b2b ab5a 813b d0bf
00000220: 649a 6c8d abf7 b4bf 1e0a 00ca 9dee e0bf
00000230: ba5c 9520 b3db dbbf 6d06 1833 0b71 cebf
00000240: df6e 1090 4056 fd3f 3676 5463 8cfa cd3f
00000250: bb38 3aa4 d0fe cb3f 471e 5373 2387 e9bf
00000260: df34 f8eb 046e f23f dd1c a924 ec93 d0bf
00000270: 917a c64b 2a18 f0bf 6f3f bf68 58bb f03f
00000280: 8d16 2a85 ae6e babf 28f9 0735 a217 ee3f
00000290: 7f84 ac4e 1a83 e3bf 9228 b05f f740 c8bf
000002a0: 20df 6418 80a2 0c40 385a 27c4 b7b2 0fc0
000002b0: b9a5 b782 8d61 d4bf f9e8 80e1 3956 2040
000002c0: c1ea 4e46 4b86 22c0 346b e923 66ec da3f
000002d0: a779 9e99 0da9 2f40 59ce 69fa dd3f b43f
000002e0: 073f d85c 4ae7 98bf 73ae a4d2 0178 b7bf
000002f0: b216 cc99 ade6 953f 1a19 474d 366b bdbf
00000300: 2867 8f98 1be7 ba3f 572a 722e fd12 a33f
00000310: 7f84 8486 cf8f b5bf c895 ded2 3a3d c4bf
00000320: 151c 8e9c 3828 cbbf 1f04 15c9 8fc7 db3f
00000330: 58aa db4f c0d1 b43f 594b c01d 0ec6 d3bf
00000340: 395b c2da cc4f f6bf decd fc58 7c5b fe3f
00000350: 8ba7 d9dc a622 fbbf 97b1 78ab 427f c53f
00000360: 4a18 95bf 3494 e43f ba3b fa24 5a75 e0bf
00000370: 58a3 ea4f 7484 e33f 9882 06ce e268 c1bf
00000380: b3fe fc6d 1234 b7bf 3e6e 78fb 97b9 98bf
00000390: a0b0 f320 73b3 ba3f 0a52 5624 b74a cbbf
000003a0: ba08 df24 9dc5 d03f cca1 1aa2 80f3 d03f
000003b0: 4add 3a36 4a36 d63f ab40 9fe9 0fdd d2bf
000003c0: 6a7d 510c 3680 c53f 2ef7 d3fc ae0d ddbf
000003d0: 0d81 44d0 047c a5bf f7a0 46a5 7b47 d63f
000003e0: 8c40 78ae 11f8 b03f b763 7504 d7ed d6bf
000003f0: 850f b52a bec3 c4bf 04b9 e7fe f03c a6bf
00000400: 25b5 da9a 1418 d23f 912e 56bd cd1b a2bf
00000410: b86c 133f ebba c53f 80a9 8768 8943 a53f
00000420: 8287 4647 96c2 c53f 4cd1 ae1a 4f1f d0bf
00000430: e6a0 a798 2154 bc3f 0697 4a67 1313 a03f
00000440: cf56 b0f1 37c4 c8bf b2ac 7a36 202d b9bf
00000450: 912a 4b0e dec6 b53f 0023 1c57 cc87 c6bf
00000460: c535 95b3 2e9f a63f 4100 8c2d 1f86 723f
00000470: da37 3d04 6a78 5e3f 4c6f 40cf 5996 ccbf
00000480: 270a 0709 0766 a73f 7ee2 413a 84f6 c7bf
00000490: a815 091b 39cf c1bf 4818 a3eb e054 d03f
000004a0: a9d0 8e0a 7c7c b73f 7980 1601 330b babf
000004b0: de1e c29c 0e6d b4bf 26ec 02f4 555d a8bf
000004c0: 33b9 5aca 0116 6ebf 369b 7aa5 411e c2bf
000004d0: 7804 0274 3b33 97bf 053a a0f9 1824 c93f
000004e0: eba5 9f7e b4cd c3bf bdc4 0e2b aafc cdbf
000004f0: 9fcb c2ee 4fb3 aebf d61d 3a29 2fb5 d63f
00000500: 428a 2809 fe97 763f 54a1 738b 2df5 d5bf
00000510: 4ca6 e5ee e7d5 cb3f
